…
  CROP_SIZE: (1025, 2049)
  DEBUG: False
  EVAL_FOREGROUND: False
  EVAL_INSTANCE: False
  EVAL_PANOPTIC: True
  FLIP_TEST: False
  FOREGROUND_FOLDER: foreground
  GPUS: (0,)
  INSTANCE_FOLDER: instance
  INSTANCE_SCORE_TYPE: semantic
  MODEL_FILE: 
  ORACLE_CENTER: False
  ORACLE_FOREGROUND: False
  ORACLE_OFFSET: False
  ORACLE_SEMANTIC: False
  PANOPTIC_FOLDER: panoptic
  SCALE_LIST: [1]
  SEMANTIC_FOLDER: semantic
  TEST_TIME_AUGMENTATION: False
TRAIN:
  IMS_PER_BATCH: 2
  MAX_ITER: 90000
  RESUME: False
WORKERS: 1
[07/05 13:59:03 segmentation]: Model:
PanopticDeepLab(
  (backbone): ResNet(
    (conv1): Conv2d(3, 64, kernel_size=(7, 7), stride=(2, 2), padding=(3, 3), bias=False)
    (bn1): BatchNorm2d(64, eps=1e-05, momentum=0.01, affine=True, track_running_stats=True)
    (relu): ReLU(inplace=True)
    (maxpool): MaxPool2d(kernel_size=3, stride=2, padding=1, dilation=1, ceil_mode=False)
    (layer1): Sequential(
      (0): BasicBlock(
        (conv1): Conv2d(64, 64, kernel_size=(3, 3), stride=(1, 1), padding=(1, 1), bias=False)
        (bn1): BatchNorm2d(64, eps=1e-05, momentum=0.01, affine=True, track_running_stats=True)
        (relu): ReLU(inplace=True)
        (conv2): Conv2d(64, 64, kernel_size=(3, 3), stride=(1, 1), padding=(1, 1), bias=False)
        (bn2): BatchNorm2d(64, eps=1e-05, momentum=0.01, affine=True, track_running_stats=True)
      )
      (1): BasicBlock(
        (conv1): Conv2d(64, 64, kernel_size=(3, 3), stride=(1, 1), padding=(1, 1), bias=False)
        (bn1): BatchNorm2d(64, eps=1e-05, momentum=0.01, affine=True, track_running_stats=True)
        (relu): ReLU(inplace=True)
        (conv2): Conv2d(64, 64, kernel_size=(3, 3), stride=(1, 1), padding=(1, 1), bias=False)
        (bn2): BatchNorm2d(64, eps=1e-05, momentum=0.01, affine=True, track_running_stats=True)
      )
      (2): BasicBlock(
        (conv1): Conv2d(64, 64, kernel_size=(3, 3), stride=(1, 1), padding=(1, 1), bias=False)
        (bn1): BatchNorm2d(64, eps=1e-05, momentum=0.01, affine=True, track_running_stats=True)
        (relu): ReLU(inplace=True)
        (conv2): Conv2d(64, 64, kernel_size=(3, 3), stride=(1, 1), padding=(1, 1), bias=False)
        (bn2): BatchNorm2d(64, eps=1e-05, momentum=0.01, affine=True, track_running_stats=True)
      )
    )
    (layer2): Sequential(
      (0): BasicBlock(
        (conv1): Conv2d(64, 128, kernel_size=(3, 3), stride=(2, 2), padding=(1, 1), bias=False)
        (bn1): BatchNorm2d(128, eps=1e-05, momentum=0.01, affine=True, track_running_stats=True)
        (relu): ReLU(inplace=True)
        (conv2): Conv2d(128, 128, kernel_size=(3, 3), stride=(1, 1), padding=(1, 1), bias=False)
        (bn2): BatchNorm2d(128, eps=1e-05, momentum=0.01, affine=True, track_running_stats=True)
        (downsample): Sequential(
          (0): Conv2d(64, 128, kernel_size=(1, 1), stride=(2, 2), bias=False)
          (1): BatchNorm2d(128, eps=1e-05, momentum=0.01, affine=True, track_running_stats=True)
        )
      )
      (1): BasicBlock(
        (conv1): Conv2d(128, 128, kernel_size=(3, 3), stride=(1, 1), padding=(1, 1), bias=False)
        (bn1): BatchNorm2d(128, eps=1e-05, momentum=0.01, affine=True, track_running_stats=True)
        (relu): ReLU(inplace=True)
        (conv2): Conv2d(128, 128, kernel_size=(3, 3), stride=(1, 1), padding=(1, 1), bias=False)
        (bn2): BatchNorm2d(128, eps=1e-05, momentum=0.01, affine=True, track_running_stats=True)
      )
      (2): BasicBlock(
        (conv1): Conv2d(128, 128, kernel_size=(3, 3), stride=(1, 1), padding=(1, 1), bias=False)
        (bn1): BatchNorm2d(128, eps=1e-05, momentum=0.01, affine=True, track_running_stats=True)
        (relu): ReLU(inplace=True)
        (conv2): Conv2d(128, 128, kernel_size=(3, 3), stride=(1, 1), padding=(1, 1), bias=False)
        (bn2): BatchNorm2d(128, eps=1e-05, momentum=0.01, affine=True, track_running_stats=True)
      )
      (3): BasicBlock(
        (conv1): Conv2d(128, 128, kernel_size=(3, 3), stride=(1, 1), padding=(1, 1), bias=False)
        (bn1): BatchNorm2d(128, eps=1e-05, momentum=0.01, affine=True, track_running_stats=True)
        (relu): ReLU(inplace=True)
        (conv2): Conv2d(128, 128, kernel_size=(3, 3), stride=(1, 1), padding=(1, 1), bias=False)
        (bn2): BatchNorm2d(128, eps=1e-05, momentum=0.01, affine=True, track_running_stats=True)
      )
    )
    (layer3): Sequential(
      (0): BasicBlock(
        (conv1): Conv2d(128, 256, kernel_size=(3, 3), stride=(2, 2), padding=(1, 1), bias=False)
        (bn1): BatchNorm2d(256, eps=1e-05, momentum=0.01, affine=True, track_running_stats=True)
        (relu): ReLU(inplace=True)
        (conv2): Conv2d(256, 256, kernel_size=(3, 3), stride=(1, 1), padding=(1, 1), bias=False)
        (bn2): BatchNorm2d(256, eps=1e-05, momentum=0.01, affine=True, track_running_stats=True)
        (downsample): Sequential(
          (0): Conv2d(128, 256, kernel_size=(1, 1), stride=(2, 2), bias=False)
          (1): BatchNorm2d(256, eps=1e-05, momentum=0.01, affine=True, track_running_stats=True)
        )
      )
      (1): BasicBlock(
        (conv1): Conv2d(256, 256, kernel_size=(3, 3), stride=(1, 1), padding=(1, 1), bias=False)
        (bn1): BatchNorm2d(256, eps=1e-05, momentum=0.01, affine=True, track_running_stats=True)
        (relu): ReLU(inplace=True)
        (conv2): Conv2d(256, 256, kernel_size=(3, 3), stride=(1, 1), padding=(1, 1), bias=False)
        (bn2): BatchNorm2d(256, eps=1e-05, momentum=0.01, affine=True, track_running_stats=True)
      )
      (2): BasicBlock(
        (conv1): Conv2d(256, 256, kernel_size=(3, 3), stride=(1, 1), padding=(1, 1), bias=False)
        (bn1): BatchNorm2d(256, eps=1e-05, momentum=0.01, affine=True, track_running_stats=True)
        (relu): ReLU(inplace=True)
        (conv2): Conv2d(256, 256, kernel_size=(3, 3), stride=(1, 1), padding=(1, 1), bias=False)
        (bn2): BatchNorm2d(256, eps=1e-05, momentum=0.01, affine=True, track_running_stats=True)
      )
      (3): BasicBlock(
        (conv1): Conv2d(256, 256, kernel_size=(3, 3), stride=(1, 1), padding=(1, 1), bias=False)
        (bn1): BatchNorm2d(256, eps=1e-05, momentum=0.01, affine=True, track_running_stats=True)
        (relu): ReLU(inplace=True)
        (conv2): Conv2d(256, 256, kernel_size=(3, 3), stride=(1, 1), padding=(1, 1), bias=False)
        (bn2): BatchNorm2d(256, eps=1e-05, momentum=0.01, affine=True, track_running_stats=True)
      )
      (4): BasicBlock(
        (conv1): Conv2d(256, 256, kernel_size=(3, 3), stride=(1, 1), padding=(1, 1), bias=False)
        (bn1): BatchNorm2d(256, eps=1e-05, momentum=0.01, affine=True, track_running_stats=True)
        (relu): ReLU(inplace=True)
        (conv2): Conv2d(256, 256, kernel_size=(3, 3), stride=(1, 1), padding=(1, 1), bias=False)
        (bn2): BatchNorm2d(256, eps=1e-05, momentum=0.01, affine=True, track_running_stats=True)
      )
      (5): BasicBlock(
        (conv1): Conv2d(256, 256, kernel_size=(3, 3), stride=(1, 1), padding=(1, 1), bias=False)
        (bn1): BatchNorm2d(256, eps=1e-05, momentum=0.01, affine=True, track_running_stats=True)
        (relu): ReLU(inplace=True)
        (conv2): Conv2d(256, 256, kernel_size=(3, 3), stride=(1, 1), padding=(1, 1), bias=False)
        (bn2): BatchNorm2d(256, eps=1e-05, momentum=0.01, affine=True, track_running_stats=True)
      )
    )
    (layer4): Sequential(
      (0): BasicBlock(
        (conv1): Conv2d(256, 512, kernel_size=(3, 3), stride=(2, 2), padding=(1, 1), bias=False)
        (bn1): BatchNorm2d(512, eps=1e-05, momentum=0.01, affine=True, track_running_stats=True)
        (relu): ReLU(inplace=True)
        (conv2): Conv2d(512, 512, kernel_size=(3, 3), stride=(1, 1), padding=(1, 1), bias=False)
        (bn2): BatchNorm2d(512, eps=1e-05, momentum=0.01, affine=True, track_running_stats=True)
        (downsample): Sequential(
          (0): Conv2d(256, 512, kernel_size=(1, 1), stride=(2, 2), bias=False)
          (1): BatchNorm2d(512, eps=1e-05, momentum=0.01, affine=True, track_running_stats=True)
        )
      )
      (1): BasicBlock(
        (conv1): Conv2d(512, 512, kernel_size=(3, 3), stride=(1, 1), padding=(1, 1), bias=False)
        (bn1): BatchNorm2d(512, eps=1e-05, momentum=0.01, affine=True, track_running_stats=True)
        (relu): ReLU(inplace=True)
        (conv2): Conv2d(512, 512, kernel_size=(3, 3), stride=(1, 1), padding=(1, 1), bias=False)
        (bn2): BatchNorm2d(512, eps=1e-05, momentum=0.01, affine=True, track_running_stats=True)
      )
      (2): BasicBlock(
        (conv1): Conv2d(512, 512, kernel_size=(3, 3), stride=(1, 1), padding=(1, 1), bias=False)
        (bn1): BatchNorm2d(512, eps=1e-05, momentum=0.01, affine=True, track_running_stats=True)
        (relu): ReLU(inplace=True)
        (conv2): Conv2d(512, 512, kernel_size=(3, 3), stride=(1, 1), padding=(1, 1), bias=False)
        (bn2): BatchNorm2d(512, eps=1e-05, momentum=0.01, affine=True, track_running_stats=True)
      )
    )
  )
  (decoder): PanopticDeepLabDecoder(
    (semantic_decoder): SinglePanopticDeepLabDecoder(
      (aspp): ASPP(
        (convs): ModuleList(
          (0): Sequential(
            (0): Conv2d(512, 256, kernel_size=(1, 1), stride=(1, 1), bias=False)
            (1): BatchNorm2d(256, eps=1e-05, momentum=0.01, affine=True, track_running_stats=True)
            (2): ReLU()
          )
          (1): ASPPConv(
            (0): Conv2d(512, 256, kernel_size=(3, 3), stride=(1, 1), padding=(6, 6), dilation=(6, 6), bias=False)
            (1): BatchNorm2d(256, eps=1e-05, momentum=0.01, affine=True, track_running_stats=True)
            (2): ReLU()
          )
          (2): ASPPConv(
            (0): Conv2d(512, 256, kernel_size=(3, 3), stride=(1, 1), padding=(12, 12), dilation=(12, 12), bias=False)
            (1): BatchNorm2d(256, eps=1e-05, momentum=0.01, affine=True, track_running_stats=True)
            (2): ReLU()
          )
          (3): ASPPConv(
            (0): Conv2d(512, 256, kernel_size=(3, 3), stride=(1, 1), padding=(18, 18), dilation=(18, 18), bias=False)
            (1): BatchNorm2d(256, eps=1e-05, momentum=0.01, affine=True, track_running_stats=True)
            (2): ReLU()
          )
          (4): ASPPPooling(
            (aspp_pooling): Sequential(
              (0): AdaptiveAvgPool2d(output_size=1)
              (1): Conv2d(512, 256, kernel_size=(1, 1), stride=(1, 1), bias=False)
              (2): ReLU()
            )
          )
        )
        (project): Sequential(
          (0): Conv2d(1280, 256, kernel_size=(1, 1), stride=(1, 1), bias=False)
          (1): BatchNorm2d(256, eps=1e-05, momentum=0.01, affine=True, track_running_stats=True)
          (2): ReLU()
          (3): Dropout(p=0.5, inplace=False)
        )
      )
      (project): ModuleList(
        (0): Sequential(
          (0): Conv2d(128, 64, kernel_size=(1, 1), stride=(1, 1), bias=False)
          (1): BatchNorm2d(64, eps=1e-05, momentum=0.01, affine=True, track_running_stats=True)
          (2): ReLU()
        )
        (1): Sequential(
          (0): Conv2d(64, 32, kernel_size=(1, 1), stride=(1, 1), bias=False)
          (1): BatchNorm2d(32, eps=1e-05, momentum=0.01, affine=True, track_running_stats=True)
          (2): ReLU()
        )
      )
      (fuse): ModuleList(
        (0): Sequential(
          (0): Sequential(
            (0): Sequential(
              (0): Conv2d(320, 320, kernel_size=(5, 5), stride=(1, 1), padding=(2, 2), groups=320, bias=False)
              (1): BatchNorm2d(320, eps=1e-05, momentum=0.01, affine=True, track_running_stats=True)
              (2): ReLU()
            )
            (1): Conv2d(320, 256, kernel_size=(1, 1), stride=(1, 1), bias=False)
            (2): BatchNorm2d(256, eps=1e-05, momentum=0.01, affine=True, track_running_stats=True)
            (3): ReLU()
          )
        )
        (1): Sequential(
          (0): Sequential(
            (0): Sequential(
              (0): Conv2d(288, 288, kernel_size=(5, 5), stride=(1, 1), padding=(2, 2), groups=288, bias=False)
              (1): BatchNorm2d(288, eps=1e-05, momentum=0.01, affine=True, track_running_stats=True)
              (2): ReLU()
            )
            (1): Conv2d(288, 256, kernel_size=(1, 1), stride=(1, 1), bias=False)
            (2): BatchNorm2d(256, eps=1e-05, momentum=0.01, affine=True, track_running_stats=True)
            (3): ReLU()
          )
        )
      )
    )
    (semantic_head): SinglePanopticDeepLabHead(
      (classifier): ModuleDict(
        (semantic): Sequential(
          (0): Sequential(
            (0): Sequential(
              (0): Sequential(
                (0): Conv2d(256, 256, kernel_size=(5, 5), stride=(1, 1), padding=(2, 2), groups=256, bias=False)
                (1): BatchNorm2d(256, eps=1e-05, momentum=0.01, affine=True, track_running_stats=True)
                (2): ReLU()
              )
              (1): Conv2d(256, 256, kernel_size=(1, 1), stride=(1, 1), bias=False)
              (2): BatchNorm2d(256, eps=1e-05, momentum=0.01, affine=True, track_running_stats=True)
              (3): ReLU()
            )
          )
          (1): Conv2d(256, 19, kernel_size=(1, 1), stride=(1, 1))
        )
      )
    )
    (instance_decoder): SinglePanopticDeepLabDecoder(
      (aspp): ASPP(
        (convs): ModuleList(
          (0): Sequential(
            (0): Conv2d(512, 256, kernel_size=(1, 1), stride=(1, 1), bias=False)
            (1): BatchNorm2d(256, eps=1e-05, momentum=0.01, affine=True, track_running_stats=True)
            (2): ReLU()
          )
          (1): ASPPConv(
            (0): Conv2d(512, 256, kernel_size=(3, 3), stride=(1, 1), padding=(6, 6), dilation=(6, 6), bias=False)
            (1): BatchNorm2d(256, eps=1e-05, momentum=0.01, affine=True, track_running_stats=True)
            (2): ReLU()
          )
          (2): ASPPConv(
            (0): Conv2d(512, 256, kernel_size=(3, 3), stride=(1, 1), padding=(12, 12), dilation=(12, 12), bias=False)
            (1): BatchNorm2d(256, eps=1e-05, momentum=0.01, affine=True, track_running_stats=True)
            (2): ReLU()
          )
          (3): ASPPConv(
            (0): Conv2d(512, 256, kernel_size=(3, 3), stride=(1, 1), padding=(18, 18), dilation=(18, 18), bias=False)
            (1): BatchNorm2d(256, eps=1e-05, momentum=0.01, affine=True, track_running_stats=True)
            (2): ReLU()
          )
          (4): ASPPPooling(
            (aspp_pooling): Sequential(
              (0): AdaptiveAvgPool2d(output_size=1)
              (1): Conv2d(512, 256, kernel_size=(1, 1), stride=(1, 1), bias=False)
              (2): ReLU()
            )
          )
        )
        (project): Sequential(
          (0): Conv2d(1280, 256, kernel_size=(1, 1), stride=(1, 1), bias=False)
          (1): BatchNorm2d(256, eps=1e-05, momentum=0.01, affine=True, track_running_stats=True)
          (2): ReLU()
          (3): Dropout(p=0.5, inplace=False)
        )
      )
      (project): ModuleList(
        (0): Sequential(
          (0): Conv2d(128, 32, kernel_size=(1, 1), stride=(1, 1), bias=False)
          (1): BatchNorm2d(32, eps=1e-05, momentum=0.01, affine=True, track_running_stats=True)
          (2): ReLU()
        )
        (1): Sequential(
          (0): Conv2d(64, 16, kernel_size=(1, 1), stride=(1, 1), bias=False)
          (1): BatchNorm2d(16, eps=1e-05, momentum=0.01, affine=True, track_running_stats=True)
          (2): ReLU()
        )
      )
      (fuse): ModuleList(
        (0): Sequential(
          (0): Sequential(
            (0): Sequential(
              (0): Conv2d(288, 288, kernel_size=(5, 5), stride=(1, 1), padding=(2, 2), groups=288, bias=False)
              (1): BatchNorm2d(288, eps=1e-05, momentum=0.01, affine=True, track_running_stats=True)
              (2): ReLU()
            )
            (1): Conv2d(288, 128, kernel_size=(1, 1), stride=(1, 1), bias=False)
            (2): BatchNorm2d(128, eps=1e-05, momentum=0.01, affine=True, track_running_stats=True)
            (3): ReLU()
          )
        )
        (1): Sequential(
          (0): Sequential(
            (0): Sequential(
              (0): Conv2d(144, 144, kernel_size=(5, 5), stride=(1, 1), padding=(2, 2), groups=144, bias=False)
              (1): BatchNorm2d(144, eps=1e-05, momentum=0.01, affine=True, track_running_stats=True)
              (2): ReLU()
            )
            (1): Conv2d(144, 128, kernel_size=(1, 1), stride=(1, 1), bias=False)
            (2): BatchNorm2d(128, eps=1e-05, momentum=0.01, affine=True, track_running_stats=True)
            (3): ReLU()
          )
        )
      )
    )
    (instance_head): SinglePanopticDeepLabHead(
      (classifier): ModuleDict(
        (center): Sequential(
          (0): Sequential(
            (0): Sequential(
              (0): Sequential(
                (0): Conv2d(128, 128, kernel_size=(5, 5), stride=(1, 1), padding=(2, 2), groups=128, bias=False)
                (1): BatchNorm2d(128, eps=1e-05, momentum=0.01, affine=True, track_running_stats=True)
                (2): ReLU()
              )
              (1): Conv2d(128, 128, kernel_size=(1, 1), stride=(1, 1), bias=False)
              (2): BatchNorm2d(128, eps=1e-05, momentum=0.01, affine=True, track_running_stats=True)
              (3): ReLU()
            )
          )
          (1): Conv2d(128, 1, kernel_size=(1, 1), stride=(1, 1))
        )
        (offset): Sequential(
          (0): Sequential(
            (0): Sequential(
              (0): Sequential(
                (0): Conv2d(128, 128, kernel_size=(5, 5), stride=(1, 1), padding=(2, 2), groups=128, bias=False)
                (1): BatchNorm2d(128, eps=1e-05, momentum=0.01, affine=True, track_running_stats=True)
                (2): ReLU()
              )
              (1): Conv2d(128, 128, kernel_size=(1, 1), stride=(1, 1), bias=False)
              (2): BatchNorm2d(128, eps=1e-05, momentum=0.01, affine=True, track_running_stats=True)
              (3): ReLU()
            )
          )
          (1): Conv2d(128, 2, kernel_size=(1, 1), stride=(1, 1))
        )
      )
    )
  )
  (semantic_loss): DeepLabCE(
    (criterion): CrossEntropyLoss()
  )
  (center_loss): MSELoss()
  (offset_loss): L1Loss()
)
[07/05 13:59:03 segmentation]: Rank of current process: 0. World size: 1
[build.py]: number of workers1
[build.py]: images per batch2
[build.py]: Dataset length2975
[07/05 13:59:06 seg.data.build]: Using training sampler TrainingSampler
…
